training_output/fire_detection_tinyml.tflite (tflite, 162904 bytes, 11 tensors)

tfl.pseudo_qconst1 i1 [1, 32] scale=0.0027401706 zero_point=0
00000000: 3a28 45dd 56e1 a33c 9700 41dd af6d 7a3c
00000010: 0952 a195 4746 1a00 30a7 81ab ca48 e002
0.1589299 0.109606825 0.18907177 -0.09590597 0.23565467 -0.08494529 -0.25483587 0.16441023
-0.2877179 0.0 0.17811109 -0.09590597 -0.22195381 0.2986786 0.33430082 0.16441023
0.024661535 0.22469398 -0.2603162 -0.29319826 0.19455211 0.19181193 0.07124443 0.0
0.13152818 -0.24387518 -0.34800166 -0.23291449 -0.14796922 0.19729228 -0.08768546 0.005480341

tfl.pseudo_qconst3 i1 [32, 4608]
00000000: e2f9 f800 9cdf 810b 09ec 1119 f2f5 f201
00000010: cefa fa09 e3fb ffd3 08b0 0726 f3a6 02d4
00000020: fdf8 0408 e1ee afff 46b0 1019 1af8 03fa
00000030: e235 0809 f202 09ea ffe3 0136 01d0 17f0
00000040: 100b 0918 f7ed c105 1ae8 0c2d 0bf2 00e1
00000050: f628 0007 f60c 1ffd f4f3 2536 02e3 10fe
00000060: fe14 1117 fbeb bc06 2fff 272b f4ed fcf7
00000070: f603 0f15 f2f9 26f2 ffd7 1e38 f8ca 0ce6
00000080: 0416 150c eede b7fe 0ef1 2f17 11ff 04e6
00000090: f31d 0813 01fa 0ef6 f8de 1a23 08d1 0eef
000000a0: f303 0f0e ffd1 c705 35ef 1a26 0dfe ffed
000000b0: e5eb 0a04 0307 11f2 eeea 173e fdb2 10ec
000000c0: d4f8 1d0d f8f0 c210 1fee fd22 04f8 f1e5
000000d0: e9fc 0cfe f8fe 16ec 02cf 0f43 eeaf 0fdf
000000e0: fc01 171b 02fb c809 14f4 1a26 fb01 fd04
000000f0: 000f 0d0f f2fb 1cfd 00c7 1439 f3b8 0ff7
-30 -7 -8 0 -100 -33 -127 11
9 -20 17 25 -14 -11 -14 1
-50 -6 -6 9 -29 -5 -1 -45
8 -80 7 38 -13 -90 2 -44
-3 -8 4 8 -31 -18 -81 -1
70 -80 16 25 26 -8 3 -6
-30 53 8 9 -14 2 9 -22
-1 -29 1 54 1 -48 23 -16
16 11 9 24 -9 -19 -63 5
26 -24 12 45 11 -14 0 -31
-10 40 0 7 -10 12 31 -3
-12 -13 37 54 2 -29 16 -2
-2 20 17 23 -5 -21 -68 6
47 -1 39 43 -12 -19 -4 -9
-10 3 15 21 -14 -7 38 -14
-1 -41 30 56 -8 -54 12 -26
4 22 21 12 -18 -34 -73 -2
14 -15 47 23 17 -1 4 -26
-13 29 8 19 1 -6 14 -10
-8 -34 26 35 8 -47 14 -17
-13 3 15 14 -1 -47 -57 5
53 -17 26 38 13 -2 -1 -19
-27 -21 10 4 3 7 17 -14
-18 -22 23 62 -3 -78 16 -20
-44 -8 29 13 -8 -16 -62 16
31 -18 -3 34 4 -8 -15 -27
-23 -4 12 -2 -8 -2 22 -20
2 -49 15 67 -18 -81 15 -33
-4 1 23 27 2 -5 -56 9
20 -12 26 38 -5 1 -3 4
0 15 13 15 -14 -5 28 -3
0 -57 20 57 -13 -72 15 -9

tfl.pseudo_qconst4 i1 [32] scale=0.0028303594 zero_point=127
00000000: 18db 1b30 1c1f 06e8 1226 30dd 8008 11f9
00000010: 2433 100c 45c3 0e00 fc00 1a89 e62d 96e1
-0.291527 -0.46417895 -0.28303593 -0.22359839 -0.28020558 -0.2717145 -0.34247348 -0.42738426
-0.30850917 -0.25190198 -0.22359839 -0.4585182 -0.7217416 -0.33681276 -0.31133953 -0.37926817
-0.2575627 -0.2151073 -0.31416988 -0.32549134 -0.16416085 -0.5321076 -0.3198306 -0.35945565
-0.37077707 -0.35945565 -0.2858663 -0.6962684 -0.433045 -0.23208947 -0.6594737 -0.44719678

tfl.pseudo_qconst5 i1 [32] scale=0.047434725 zero_point=-128
00000000: 00d3 213b 220f 3201 455b 22d6 a918 0815
00000010: e34b 41ea 7fbc ebdf 1039 19e5 c00d b5bd
6.071645 3.937082 7.6369905 8.870294 7.6844254 6.7831655 8.443381 6.1190796
9.344641 10.388205 7.6844254 4.079386 1.9448237 7.2100782 6.4511228 7.067774
4.696038 9.62925 9.1549015 5.028081 12.095855 2.8460834 5.0755157 4.506299
6.8306003 8.775424 7.257513 4.7909074 3.0358224 6.6882963 2.5140405 2.8935182

tfl.pseudo_qconst7 i1 [32, 3, 3, 16]
00000000: 1cda ee07 1bd6 2815 18f2 d1cf e2ba e8ec
00000010: e1e8 eadf c7fb 4cec 0dd9 ced6 0bf3 04bd
00000020: cfdf ebdb ceb6 f2f0 1af0 0bdc d3f4 faf3
00000030: dcf6 d100 d3bf e8d0 081a ebdc 0df4 02d4
00000040: c7f6 c7e1 1dce 7316 01ff d9f2 ed1b 1418
00000050: 0fea d2d5 f3c9 d2ee fceb 1625 eff6 3ee9
00000060: 1903 192d 3fb4 f1dd daf9 e9fc 1b7f 495d
00000070: ff09 d001 0d11 4659 ec22 0169 b6ef 57f2
00000080: 1c12 d908 592c de11 0432 ed6f bfd9 10fc
00000090: c03f ffc4 a7dd 14ac 341a 46c7 0dbb ddd1
000000a0: ec61 81bc c5d6 f931 f5b4 2d05 0eea 97b4
000000b0: cc15 d29e ff13 243f 2a30 06dd 22c3 dcc5
000000c0: d7fd 1426 d30f f607 b618 090d e660 4d02
000000d0: 06d8 1b2b 2fdd be16 15df d535 db43 52b0
000000e0: e453 6c2d 039f c306 f4b3 e8b9 f12d 5fe3
000000f0: f256 7015 f8a9 b0cd 7a07 58ce 69ca d747
28 -38 -18 7 27 -42 40 21
24 -14 -47 -49 -30 -70 -24 -20
-31 -24 -22 -33 -57 -5 76 -20
13 -39 -50 -42 11 -13 4 -67
-49 -33 -21 -37 -50 -74 -14 -16
26 -16 11 -36 -45 -12 -6 -13
-36 -10 -47 0 -45 -65 -24 -48
8 26 -21 -36 13 -12 2 -44
-57 -10 -57 -31 29 -50 115 22
1 -1 -39 -14 -19 27 20 24
15 -22 -46 -43 -13 -55 -46 -18
-4 -21 22 37 -17 -10 62 -23
25 3 25 45 63 -76 -15 -35
-38 -7 -23 -4 27 127 73 93
-1 9 -48 1 13 17 70 89
-20 34 1 105 -74 -17 87 -14
28 18 -39 8 89 44 -34 17
4 50 -19 111 -65 -39 16 -4
-64 63 -1 -60 -89 -35 20 -84
52 26 70 -57 13 -69 -35 -47
-20 97 -127 -68 -59 -42 -7 49
-11 -76 45 5 14 -22 -105 -76
-52 21 -46 -98 -1 19 36 63
42 48 6 -35 34 -61 -36 -59
-41 -3 20 38 -45 15 -10 7
-74 24 9 13 -26 96 77 2
6 -40 27 43 47 -35 -66 22
21 -33 -43 53 -37 67 82 -80
-28 83 108 45 3 -97 -61 6
-12 -77 -24 -71 -15 45 95 -29
-14 86 112 21 -8 -87 -80 -51
122 7 88 -50 105 -54 -41 71

tfl.pseudo_qconst8 i1 [16] scale=0.003522879 zero_point=127
00000000: 37eb 4241 fb21 e3bc 0d80 1b07 e6e2 0ffb
-0.2536473 -0.5213861 -0.21489562 -0.2184185 -0.46502003 -0.33115062 -0.54956913 -0.6869614
-0.4016082 -0.89833415 -0.3522879 -0.42274547 -0.5390005 -0.553092 -0.39456245 -0.46502003

tfl.pseudo_qconst9 i1 [16] scale=0.018981606 zero_point=-128
00000000: 3c0e 1b7f 074f 603d f851 2227 505f 6469
3.568542 2.695388 2.942149 4.8403096 2.5625167 3.9291923 4.2518797 3.5875235
2.2777927 3.9671557 3.07502 3.169928 3.948174 4.232898 4.327806 4.422714

tfl.pseudo_qconst11 i1 [16, 3, 3, 8]
00000000: e419 ffa9 47de 1b17 44e1 0acf 2142 e9ef
00000010: e112 c25b 2601 1766 fd25 cbc2 daf4 eaa3
00000020: d015 f71f 1dd9 1312 4516 e4fd 2ae1 cd3e
00000030: e1f9 ebe3 09fb fc21 f60a 0849 3103 e8cd
00000040: 7fef 02bc 3620 bf56 ddb5 41fe 23ff 39e5
00000050: b6e4 c332 37d8 a32b cdcb 280a c655 1bc3
00000060: edf7 5f15 c000 5b34 c1f9 4fe2 3ae5 7f1b
00000070: de25 c1fd b1df 274f d636 3ae7 d2bf 06f5
00000080: cfc2 511a 39d4 29da 3be7 eee8 bce5 f0f4
00000090: 25a7 c157 413a c0fd 4c9f 1d7f 2b41 d7fb
000000a0: 33e1 f61b 07c5 5e87 13e8 5ab5 7fbc 4a10
000000b0: 0569 1cde 1d57 2cbe 7ffe d728 bae9 d62b
000000c0: e104 02ea b259 3cf7 3556 aee8 b301 a83b
000000d0: c3ea 5cca c4ac d607 7fe1 1b51 bbd5 aad7
000000e0: e2b4 1f69 54e8 dcef 2c1d 67e0 cb12 e7f5
000000f0: f64a 0efd 614e 0a39 7cd7 4b32 42f3 9a40
-28 25 -1 -87 71 -34 27 23
68 -31 10 -49 33 66 -23 -17
-31 18 -62 91 38 1 23 102
-3 37 -53 -62 -38 -12 -22 -93
-48 21 -9 31 29 -39 19 18
69 22 -28 -3 42 -31 -51 62
-31 -7 -21 -29 9 -5 -4 33
-10 10 8 73 49 3 -24 -51
127 -17 2 -68 54 32 -65 86
-35 -75 65 -2 35 -1 57 -27
-74 -28 -61 50 55 -40 -93 43
-51 -53 40 10 -58 85 27 -61
-19 -9 95 21 -64 0 91 52
-63 -7 79 -30 58 -27 127 27
-34 37 -63 -3 -79 -33 39 79
-42 54 58 -25 -46 -65 6 -11
-49 -62 81 26 57 -44 41 -38
59 -25 -18 -24 -68 -27 -16 -12
37 -89 -63 87 65 58 -64 -3
76 -97 29 127 43 65 -41 -5
51 -31 -10 27 7 -59 94 -121
19 -24 90 -75 127 -68 74 16
5 105 28 -34 29 87 44 -66
127 -2 -41 40 -70 -23 -42 43
-31 4 2 -22 -78 89 60 -9
53 86 -82 -24 -77 1 -88 59
-61 -22 92 -54 -60 -84 -42 7
127 -31 27 81 -69 -43 -86 -41
-30 -76 31 105 84 -24 -36 -17
44 29 103 -32 -53 18 -25 -11
-10 74 14 -3 97 78 10 57
124 -41 75 50 66 -13 -102 64

tfl.pseudo_qconst12 i1 [8] scale=0.005066378 zero_point=127
00000000: 363d 4138 3680 2626
-0.3698456 -0.33438095 -0.31411543 -0.35971284 -0.3698456 -1.2919264 -0.45090765 -0.45090765

tfl.pseudo_qconst13 i1 [8] scale=0.08502714 zero_point=-128
00000000: 372a 0e7f 2bb9 e5dd
15.559967 14.454615 12.073854 21.681921 14.539641 4.846547 8.587742 7.907524

tfl.pseudo_qconst15 i1 [8, 3, 3, 3]
00000000: 933b 0aff 1f60 83ab ab23 122e 1f46 6fd3
00000010: 1046 1a36 2a54 df81 60f0 8525 080a 3546
00000020: 440b 5b5d 81e0 18ed 7092 c12e ff2b f484
00000030: f831 5b43 408f 04f1 394d 2d57 07e2 25d6
00000040: 4e11 81f2 12cb c02e b8b2 1443 08f0 26c4
00000050: 2c7f 89e8 64d5 c7bf a927 7905 1c26 c6fa
00000060: 9464 0f18 c306 c852 d2a1 5370 840e 9790
00000070: 3f18 4346 2d0b 1a0e 67dc 43f8 1245 004c
00000080: 4e29 4481 8f97 e025 0133 81b4 9234 143d
00000090: e29b d7f5 41a4 6792 5b10 c991 1a21 c06d
000000a0: 07fa 2148 ccf0 7ff7 7a3d 6607 30bc b6ff
000000b0: 34c2 55e1 ff05 ffe8 ab9a 9a09 a400 6540
000000c0: ce64 b150 b1ec 196a 671c 7fa2 eaec ba0f
000000d0: 0de9 4ac0 302e 04b0
-109 59 10 -1 31 96 -125 -85
-85 35 18 46 31 70 111 -45
16 70 26 54 42 84 -33 -127
96 -16 -123 37 8 10 53 70
68 11 91 93 -127 -32 24 -19
112 -110 -63 46 -1 43 -12 -124
-8 49 91 67 64 -113 4 -15
57 77 45 87 7 -30 37 -42
78 17 -127 -14 18 -53 -64 46
-72 -78 20 67 8 -16 38 -60
44 127 -119 -24 100 -43 -57 -65
-87 39 121 5 28 38 -58 -6
-108 100 15 24 -61 6 -56 82
-46 -95 83 112 -124 14 -105 -112
63 24 67 70 45 11 26 14
103 -36 67 -8 18 69 0 76
78 41 68 -127 -113 -105 -32 37
1 51 -127 -76 -110 52 20 61
-30 -101 -41 -11 65 -92 103 -110
91 16 -55 -111 26 33 -64 109
7 -6 33 72 -52 -16 127 -9
122 61 102 7 48 -68 -74 -1
52 -62 85 -31 -1 5 -1 -24
-85 -102 -102 9 -92 0 101 64
-50 100 -79 80 -79 -20 25 106
103 28 127 -94 -22 -20 -70 15
13 -23 74 -64 48 46 4 -80
